digraph "graph" {
node [shape="record"]
"model/conv2d/BiasAdd;model/conv2d_19/BiasAdd/ReadVariableOp;model/conv2d/Conv2D/in_tp" [label="{Transpose}"]
"model/conv2d/BiasAdd;model/conv2d_19/BiasAdd/ReadVariableOp;model/conv2d/Conv2D/weights_tp" [label="{Transpose}"]
"model/conv2d/BiasAdd;model/conv2d_19/BiasAdd/ReadVariableOp;model/conv2d/Conv2D/conv" [label="{Conv2D}"]
"model/conv2d/BiasAdd;model/conv2d_19/BiasAdd/ReadVariableOp;model/conv2d/Conv2D/out_tp" [label="{Transpose}"]
"model/leaky_re_lu/LeakyRelu/mul" [label="{Binary}"]
"model/leaky_re_lu/LeakyRelu/max" [label="{Binary}"]
"model/conv2d_1/BiasAdd;model/conv2d_19/BiasAdd/ReadVariableOp;model/conv2d_1/Conv2D/in_tp" [label="{Transpose}"]
"model/conv2d_1/BiasAdd;model/conv2d_19/BiasAdd/ReadVariableOp;model/conv2d_1/Conv2D/weights_tp" [label="{Transpose}"]
"model/conv2d_1/BiasAdd;model/conv2d_19/BiasAdd/ReadVariableOp;model/conv2d_1/Conv2D/conv" [label="{Conv2D}"]
"model/conv2d_1/BiasAdd;model/conv2d_19/BiasAdd/ReadVariableOp;model/conv2d_1/Conv2D/out_tp" [label="{Transpose}"]
"model/leaky_re_lu_1/LeakyRelu/mul" [label="{Binary}"]
"model/leaky_re_lu_1/LeakyRelu/max" [label="{Binary}"]
"model/max_pooling2d/MaxPool" [label="{Transpose}"]
"model/max_pooling2d/MaxPool" [label="{ReduceWindow2D}"]
"model/max_pooling2d/MaxPool" [label="{Transpose}"]
"model/conv2d_2/BiasAdd;model/conv2d_16/BiasAdd/ReadVariableOp;model/conv2d_2/Conv2D/in_tp" [label="{Transpose}"]
"model/conv2d_2/BiasAdd;model/conv2d_16/BiasAdd/ReadVariableOp;model/conv2d_2/Conv2D/weights_tp" [label="{Transpose}"]
"model/conv2d_2/BiasAdd;model/conv2d_16/BiasAdd/ReadVariableOp;model/conv2d_2/Conv2D/conv" [label="{Conv2D}"]
"model/conv2d_2/BiasAdd;model/conv2d_16/BiasAdd/ReadVariableOp;model/conv2d_2/Conv2D/out_tp" [label="{Transpose}"]
"model/leaky_re_lu_2/LeakyRelu/mul" [label="{Binary}"]
"model/leaky_re_lu_2/LeakyRelu/max" [label="{Binary}"]
"model/conv2d_3/BiasAdd;model/conv2d_16/BiasAdd/ReadVariableOp;model/conv2d_3/Conv2D/in_tp" [label="{Transpose}"]
"model/conv2d_3/BiasAdd;model/conv2d_16/BiasAdd/ReadVariableOp;model/conv2d_3/Conv2D/weights_tp" [label="{Transpose}"]
"model/conv2d_3/BiasAdd;model/conv2d_16/BiasAdd/ReadVariableOp;model/conv2d_3/Conv2D/conv" [label="{Conv2D}"]
"model/conv2d_3/BiasAdd;model/conv2d_16/BiasAdd/ReadVariableOp;model/conv2d_3/Conv2D/out_tp" [label="{Transpose}"]
"model/leaky_re_lu_3/LeakyRelu/mul" [label="{Binary}"]
"model/leaky_re_lu_3/LeakyRelu/max" [label="{Binary}"]
"model/max_pooling2d_1/MaxPool" [label="{Transpose}"]
"model/max_pooling2d_1/MaxPool" [label="{ReduceWindow2D}"]
"model/max_pooling2d_1/MaxPool" [label="{Transpose}"]
"model/conv2d_4/BiasAdd;model/conv2d_13/BiasAdd/ReadVariableOp;model/conv2d_4/Conv2D/in_tp" [label="{Transpose}"]
"model/conv2d_4/BiasAdd;model/conv2d_13/BiasAdd/ReadVariableOp;model/conv2d_4/Conv2D/weights_tp" [label="{Transpose}"]
"model/conv2d_4/BiasAdd;model/conv2d_13/BiasAdd/ReadVariableOp;model/conv2d_4/Conv2D/conv" [label="{Conv2D}"]
"model/conv2d_4/BiasAdd;model/conv2d_13/BiasAdd/ReadVariableOp;model/conv2d_4/Conv2D/out_tp" [label="{Transpose}"]
"model/leaky_re_lu_4/LeakyRelu/mul" [label="{Binary}"]
"model/leaky_re_lu_4/LeakyRelu/max" [label="{Binary}"]
"model/conv2d_5/BiasAdd;model/conv2d_13/BiasAdd/ReadVariableOp;model/conv2d_5/Conv2D/in_tp" [label="{Transpose}"]
"model/conv2d_5/BiasAdd;model/conv2d_13/BiasAdd/ReadVariableOp;model/conv2d_5/Conv2D/weights_tp" [label="{Transpose}"]
"model/conv2d_5/BiasAdd;model/conv2d_13/BiasAdd/ReadVariableOp;model/conv2d_5/Conv2D/conv" [label="{Conv2D}"]
"model/conv2d_5/BiasAdd;model/conv2d_13/BiasAdd/ReadVariableOp;model/conv2d_5/Conv2D/out_tp" [label="{Transpose}"]
"model/leaky_re_lu_5/LeakyRelu/mul" [label="{Binary}"]
"model/leaky_re_lu_5/LeakyRelu/max" [label="{Binary}"]
"model/max_pooling2d_2/MaxPool" [label="{Transpose}"]
"model/max_pooling2d_2/MaxPool" [label="{ReduceWindow2D}"]
"model/max_pooling2d_2/MaxPool" [label="{Transpose}"]
"model/conv2d_6/BiasAdd;model/conv2d_10/BiasAdd/ReadVariableOp;model/conv2d_6/Conv2D/in_tp" [label="{Transpose}"]
"model/conv2d_6/BiasAdd;model/conv2d_10/BiasAdd/ReadVariableOp;model/conv2d_6/Conv2D/weights_tp" [label="{Transpose}"]
"model/conv2d_6/BiasAdd;model/conv2d_10/BiasAdd/ReadVariableOp;model/conv2d_6/Conv2D/conv" [label="{Conv2D}"]
"model/conv2d_6/BiasAdd;model/conv2d_10/BiasAdd/ReadVariableOp;model/conv2d_6/Conv2D/out_tp" [label="{Transpose}"]
"model/leaky_re_lu_6/LeakyRelu/mul" [label="{Binary}"]
"model/leaky_re_lu_6/LeakyRelu/max" [label="{Binary}"]
"model/conv2d_7/BiasAdd;model/conv2d_10/BiasAdd/ReadVariableOp;model/conv2d_7/Conv2D/in_tp" [label="{Transpose}"]
"model/conv2d_7/BiasAdd;model/conv2d_10/BiasAdd/ReadVariableOp;model/conv2d_7/Conv2D/weights_tp" [label="{Transpose}"]
"model/conv2d_7/BiasAdd;model/conv2d_10/BiasAdd/ReadVariableOp;model/conv2d_7/Conv2D/conv" [label="{Conv2D}"]
"model/conv2d_7/BiasAdd;model/conv2d_10/BiasAdd/ReadVariableOp;model/conv2d_7/Conv2D/out_tp" [label="{Transpose}"]
"model/leaky_re_lu_7/LeakyRelu/mul" [label="{Binary}"]
"model/leaky_re_lu_7/LeakyRelu/max" [label="{Binary}"]
"model/max_pooling2d_3/MaxPool" [label="{Transpose}"]
"model/max_pooling2d_3/MaxPool" [label="{ReduceWindow2D}"]
"model/max_pooling2d_3/MaxPool" [label="{Transpose}"]
"model/conv2d_8/BiasAdd;model/conv2d_8/BiasAdd/ReadVariableOp;model/conv2d_8/Conv2D/in_tp" [label="{Transpose}"]
"model/conv2d_8/BiasAdd;model/conv2d_8/BiasAdd/ReadVariableOp;model/conv2d_8/Conv2D/weights_tp" [label="{Transpose}"]
"model/conv2d_8/BiasAdd;model/conv2d_8/BiasAdd/ReadVariableOp;model/conv2d_8/Conv2D/conv" [label="{Conv2D}"]
"model/conv2d_8/BiasAdd;model/conv2d_8/BiasAdd/ReadVariableOp;model/conv2d_8/Conv2D/out_tp" [label="{Transpose}"]
"model/leaky_re_lu_8/LeakyRelu/mul" [label="{Binary}"]
"model/leaky_re_lu_8/LeakyRelu/max" [label="{Binary}"]
"model/conv2d_9/BiasAdd;model/conv2d_8/BiasAdd/ReadVariableOp;model/conv2d_9/Conv2D/in_tp" [label="{Transpose}"]
"model/conv2d_9/BiasAdd;model/conv2d_8/BiasAdd/ReadVariableOp;model/conv2d_9/Conv2D/weights_tp" [label="{Transpose}"]
"model/conv2d_9/BiasAdd;model/conv2d_8/BiasAdd/ReadVariableOp;model/conv2d_9/Conv2D/conv" [label="{Conv2D}"]
"model/conv2d_9/BiasAdd;model/conv2d_8/BiasAdd/ReadVariableOp;model/conv2d_9/Conv2D/out_tp" [label="{Transpose}"]
"model/leaky_re_lu_9/LeakyRelu/mul" [label="{Binary}"]
"model/leaky_re_lu_9/LeakyRelu/max" [label="{Binary}"]
"model/up_sampling2d/resize/ResizeNearestNeighbor" [label="{Transpose}"]
"model/up_sampling2d/resize/ResizeNearestNeighbor" [label="{ResizeImage}"]
"model/up_sampling2d/resize/ResizeNearestNeighbor" [label="{Transpose}"]
"model/conv2d_10/BiasAdd;model/conv2d_10/BiasAdd/ReadVariableOp;model/conv2d_10/Conv2D/in_tp" [label="{Transpose}"]
"model/conv2d_10/BiasAdd;model/conv2d_10/BiasAdd/ReadVariableOp;model/conv2d_10/Conv2D/weights_tp" [label="{Transpose}"]
"model/conv2d_10/BiasAdd;model/conv2d_10/BiasAdd/ReadVariableOp;model/conv2d_10/Conv2D/conv" [label="{Conv2D}"]
"model/conv2d_10/BiasAdd;model/conv2d_10/BiasAdd/ReadVariableOp;model/conv2d_10/Conv2D/out_tp" [label="{Transpose}"]
"model/leaky_re_lu_10/LeakyRelu/mul" [label="{Binary}"]
"model/leaky_re_lu_10/LeakyRelu/max" [label="{Binary}"]
"model/concatenate/concat/concat" [label="{Concat}"]
"model/conv2d_11/BiasAdd;model/conv2d_10/BiasAdd/ReadVariableOp;model/conv2d_11/Conv2D/in_tp" [label="{Transpose}"]
"model/conv2d_11/BiasAdd;model/conv2d_10/BiasAdd/ReadVariableOp;model/conv2d_11/Conv2D/weights_tp" [label="{Transpose}"]
"model/conv2d_11/BiasAdd;model/conv2d_10/BiasAdd/ReadVariableOp;model/conv2d_11/Conv2D/conv" [label="{Conv2D}"]
"model/conv2d_11/BiasAdd;model/conv2d_10/BiasAdd/ReadVariableOp;model/conv2d_11/Conv2D/out_tp" [label="{Transpose}"]
"model/leaky_re_lu_11/LeakyRelu/mul" [label="{Binary}"]
"model/leaky_re_lu_11/LeakyRelu/max" [label="{Binary}"]
"model/conv2d_12/BiasAdd;model/conv2d_10/BiasAdd/ReadVariableOp;model/conv2d_12/Conv2D/in_tp" [label="{Transpose}"]
"model/conv2d_12/BiasAdd;model/conv2d_10/BiasAdd/ReadVariableOp;model/conv2d_12/Conv2D/weights_tp" [label="{Transpose}"]
"model/conv2d_12/BiasAdd;model/conv2d_10/BiasAdd/ReadVariableOp;model/conv2d_12/Conv2D/conv" [label="{Conv2D}"]
"model/conv2d_12/BiasAdd;model/conv2d_10/BiasAdd/ReadVariableOp;model/conv2d_12/Conv2D/out_tp" [label="{Transpose}"]
"model/leaky_re_lu_12/LeakyRelu/mul" [label="{Binary}"]
"model/leaky_re_lu_12/LeakyRelu/max" [label="{Binary}"]
"model/up_sampling2d_1/resize/ResizeNearestNeighbor" [label="{Transpose}"]
"model/up_sampling2d_1/resize/ResizeNearestNeighbor" [label="{ResizeImage}"]
"model/up_sampling2d_1/resize/ResizeNearestNeighbor" [label="{Transpose}"]
"model/conv2d_13/BiasAdd;model/conv2d_13/BiasAdd/ReadVariableOp;model/conv2d_13/Conv2D/in_tp" [label="{Transpose}"]
"model/conv2d_13/BiasAdd;model/conv2d_13/BiasAdd/ReadVariableOp;model/conv2d_13/Conv2D/weights_tp" [label="{Transpose}"]
"model/conv2d_13/BiasAdd;model/conv2d_13/BiasAdd/ReadVariableOp;model/conv2d_13/Conv2D/conv" [label="{Conv2D}"]
"model/conv2d_13/BiasAdd;model/conv2d_13/BiasAdd/ReadVariableOp;model/conv2d_13/Conv2D/out_tp" [label="{Transpose}"]
"model/leaky_re_lu_13/LeakyRelu/mul" [label="{Binary}"]
"model/leaky_re_lu_13/LeakyRelu/max" [label="{Binary}"]
"model/concatenate_1/concat/concat" [label="{Concat}"]
"model/conv2d_14/BiasAdd;model/conv2d_13/BiasAdd/ReadVariableOp;model/conv2d_14/Conv2D/in_tp" [label="{Transpose}"]
"model/conv2d_14/BiasAdd;model/conv2d_13/BiasAdd/ReadVariableOp;model/conv2d_14/Conv2D/weights_tp" [label="{Transpose}"]
"model/conv2d_14/BiasAdd;model/conv2d_13/BiasAdd/ReadVariableOp;model/conv2d_14/Conv2D/conv" [label="{Conv2D}"]
"model/conv2d_14/BiasAdd;model/conv2d_13/BiasAdd/ReadVariableOp;model/conv2d_14/Conv2D/out_tp" [label="{Transpose}"]
"model/leaky_re_lu_14/LeakyRelu/mul" [label="{Binary}"]
"model/leaky_re_lu_14/LeakyRelu/max" [label="{Binary}"]
"model/conv2d_15/BiasAdd;model/conv2d_13/BiasAdd/ReadVariableOp;model/conv2d_15/Conv2D/in_tp" [label="{Transpose}"]
"model/conv2d_15/BiasAdd;model/conv2d_13/BiasAdd/ReadVariableOp;model/conv2d_15/Conv2D/weights_tp" [label="{Transpose}"]
"model/conv2d_15/BiasAdd;model/conv2d_13/BiasAdd/ReadVariableOp;model/conv2d_15/Conv2D/conv" [label="{Conv2D}"]
"model/conv2d_15/BiasAdd;model/conv2d_13/BiasAdd/ReadVariableOp;model/conv2d_15/Conv2D/out_tp" [label="{Transpose}"]
"model/leaky_re_lu_15/LeakyRelu/mul" [label="{Binary}"]
"model/leaky_re_lu_15/LeakyRelu/max" [label="{Binary}"]
"model/up_sampling2d_2/resize/ResizeNearestNeighbor" [label="{Transpose}"]
"model/up_sampling2d_2/resize/ResizeNearestNeighbor" [label="{ResizeImage}"]
"model/up_sampling2d_2/resize/ResizeNearestNeighbor" [label="{Transpose}"]
"model/conv2d_16/BiasAdd;model/conv2d_16/BiasAdd/ReadVariableOp;model/conv2d_16/Conv2D/in_tp" [label="{Transpose}"]
"model/conv2d_16/BiasAdd;model/conv2d_16/BiasAdd/ReadVariableOp;model/conv2d_16/Conv2D/weights_tp" [label="{Transpose}"]
"model/conv2d_16/BiasAdd;model/conv2d_16/BiasAdd/ReadVariableOp;model/conv2d_16/Conv2D/conv" [label="{Conv2D}"]
"model/conv2d_16/BiasAdd;model/conv2d_16/BiasAdd/ReadVariableOp;model/conv2d_16/Conv2D/out_tp" [label="{Transpose}"]
"model/leaky_re_lu_16/LeakyRelu/mul" [label="{Binary}"]
"model/leaky_re_lu_16/LeakyRelu/max" [label="{Binary}"]
"model/concatenate_2/concat/concat" [label="{Concat}"]
"model/conv2d_17/BiasAdd;model/conv2d_16/BiasAdd/ReadVariableOp;model/conv2d_17/Conv2D/in_tp" [label="{Transpose}"]
"model/conv2d_17/BiasAdd;model/conv2d_16/BiasAdd/ReadVariableOp;model/conv2d_17/Conv2D/weights_tp" [label="{Transpose}"]
"model/conv2d_17/BiasAdd;model/conv2d_16/BiasAdd/ReadVariableOp;model/conv2d_17/Conv2D/conv" [label="{Conv2D}"]
"model/conv2d_17/BiasAdd;model/conv2d_16/BiasAdd/ReadVariableOp;model/conv2d_17/Conv2D/out_tp" [label="{Transpose}"]
"model/leaky_re_lu_17/LeakyRelu/mul" [label="{Binary}"]
"model/leaky_re_lu_17/LeakyRelu/max" [label="{Binary}"]
"model/conv2d_18/BiasAdd;model/conv2d_16/BiasAdd/ReadVariableOp;model/conv2d_18/Conv2D/in_tp" [label="{Transpose}"]
"model/conv2d_18/BiasAdd;model/conv2d_16/BiasAdd/ReadVariableOp;model/conv2d_18/Conv2D/weights_tp" [label="{Transpose}"]
"model/conv2d_18/BiasAdd;model/conv2d_16/BiasAdd/ReadVariableOp;model/conv2d_18/Conv2D/conv" [label="{Conv2D}"]
"model/conv2d_18/BiasAdd;model/conv2d_16/BiasAdd/ReadVariableOp;model/conv2d_18/Conv2D/out_tp" [label="{Transpose}"]
"model/leaky_re_lu_18/LeakyRelu/mul" [label="{Binary}"]
"model/leaky_re_lu_18/LeakyRelu/max" [label="{Binary}"]
"model/up_sampling2d_3/resize/ResizeNearestNeighbor" [label="{Transpose}"]
"model/up_sampling2d_3/resize/ResizeNearestNeighbor" [label="{ResizeImage}"]
"model/up_sampling2d_3/resize/ResizeNearestNeighbor" [label="{Transpose}"]
"model/conv2d_19/BiasAdd;model/conv2d_19/BiasAdd/ReadVariableOp;model/conv2d_19/Conv2D/in_tp" [label="{Transpose}"]
"model/conv2d_19/BiasAdd;model/conv2d_19/BiasAdd/ReadVariableOp;model/conv2d_19/Conv2D/weights_tp" [label="{Transpose}"]
"model/conv2d_19/BiasAdd;model/conv2d_19/BiasAdd/ReadVariableOp;model/conv2d_19/Conv2D/conv" [label="{Conv2D}"]
"model/conv2d_19/BiasAdd;model/conv2d_19/BiasAdd/ReadVariableOp;model/conv2d_19/Conv2D/out_tp" [label="{Transpose}"]
"model/leaky_re_lu_19/LeakyRelu/mul" [label="{Binary}"]
"model/leaky_re_lu_19/LeakyRelu/max" [label="{Binary}"]
"model/concatenate_3/concat/concat" [label="{Concat}"]
"model/conv2d_20/BiasAdd;model/conv2d_19/BiasAdd/ReadVariableOp;model/conv2d_20/Conv2D/in_tp" [label="{Transpose}"]
"model/conv2d_20/BiasAdd;model/conv2d_19/BiasAdd/ReadVariableOp;model/conv2d_20/Conv2D/weights_tp" [label="{Transpose}"]
"model/conv2d_20/BiasAdd;model/conv2d_19/BiasAdd/ReadVariableOp;model/conv2d_20/Conv2D/conv" [label="{Conv2D}"]
"model/conv2d_20/BiasAdd;model/conv2d_19/BiasAdd/ReadVariableOp;model/conv2d_20/Conv2D/out_tp" [label="{Transpose}"]
"model/leaky_re_lu_20/LeakyRelu/mul" [label="{Binary}"]
"model/leaky_re_lu_20/LeakyRelu/max" [label="{Binary}"]
"model/conv2d_21/BiasAdd;model/conv2d_19/BiasAdd/ReadVariableOp;model/conv2d_21/Conv2D/in_tp" [label="{Transpose}"]
"model/conv2d_21/BiasAdd;model/conv2d_19/BiasAdd/ReadVariableOp;model/conv2d_21/Conv2D/weights_tp" [label="{Transpose}"]
"model/conv2d_21/BiasAdd;model/conv2d_19/BiasAdd/ReadVariableOp;model/conv2d_21/Conv2D/conv" [label="{Conv2D}"]
"model/conv2d_21/BiasAdd;model/conv2d_19/BiasAdd/ReadVariableOp;model/conv2d_21/Conv2D/out_tp" [label="{Transpose}"]
"model/leaky_re_lu_21/LeakyRelu/mul" [label="{Binary}"]
"model/leaky_re_lu_21/LeakyRelu/max" [label="{Binary}"]
"model/conv2d_22/BiasAdd;model/conv2d_22/BiasAdd/ReadVariableOp;model/conv2d_22/Conv2D/in_tp" [label="{Transpose}"]
"model/conv2d_22/BiasAdd;model/conv2d_22/BiasAdd/ReadVariableOp;model/conv2d_22/Conv2D/weights_tp" [label="{Transpose}"]
"model/conv2d_22/BiasAdd;model/conv2d_22/BiasAdd/ReadVariableOp;model/conv2d_22/Conv2D/conv" [label="{Conv2D}"]
"model/conv2d_22/BiasAdd;model/conv2d_22/BiasAdd/ReadVariableOp;model/conv2d_22/Conv2D/out_tp" [label="{Transpose}"]
"model/leaky_re_lu_22/LeakyRelu/mul" [label="{Binary}"]
"model/leaky_re_lu_22/LeakyRelu/max" [label="{Binary}"]
"model/conv2d_23/BiasAdd;model/conv2d_23/BiasAdd/ReadVariableOp;model/conv2d_23/Conv2D/in_tp" [label="{Transpose}"]
"model/conv2d_23/BiasAdd;model/conv2d_23/BiasAdd/ReadVariableOp;model/conv2d_23/Conv2D/weights_tp" [label="{Transpose}"]
"model/conv2d_23/BiasAdd;model/conv2d_23/BiasAdd/ReadVariableOp;model/conv2d_23/Conv2D/conv" [label="{Conv2D}"]
"model/conv2d_23/BiasAdd;model/conv2d_23/BiasAdd/ReadVariableOp;model/conv2d_23/Conv2D/out_tp" [label="{Transpose}"]
"StatefulPartitionedCall:0" [label="{Binary}"]
"StatefulPartitionedCall:0" [label="{Unary}"]
"StatefulPartitionedCall:0" [label="{Binary}"]
"StatefulPartitionedCall:0" [label="{Binary}"]
"StatefulPartitionedCall:0" [label="{Binary}"]
"serving_default_input_1:0" [label="{Input}"]
"StatefulPartitionedCall:0" [label="{Output}"]
"model/conv2d/BiasAdd;model/conv2d_19/BiasAdd/ReadVariableOp;model/conv2d/Conv2D/in_tp"->"model/conv2d/BiasAdd;model/conv2d_19/BiasAdd/ReadVariableOp;model/conv2d/Conv2D/conv" [label="f32[1,1,128,128]"]
"model/conv2d/BiasAdd;model/conv2d_19/BiasAdd/ReadVariableOp;model/conv2d/Conv2D/weights_tp"->"model/conv2d/BiasAdd;model/conv2d_19/BiasAdd/ReadVariableOp;model/conv2d/Conv2D/conv" [label="f32[16,1,3,3]"]
"model/conv2d/BiasAdd;model/conv2d_19/BiasAdd/ReadVariableOp;model/conv2d/Conv2D/conv"->"model/conv2d/BiasAdd;model/conv2d_19/BiasAdd/ReadVariableOp;model/conv2d/Conv2D/out_tp" [label="f32[1,16,128,128]"]
"model/conv2d/BiasAdd;model/conv2d_19/BiasAdd/ReadVariableOp;model/conv2d/Conv2D/out_tp"->"model/leaky_re_lu/LeakyRelu/max" [label="f32[1,128,128,16]"]
"model/conv2d/BiasAdd;model/conv2d_19/BiasAdd/ReadVariableOp;model/conv2d/Conv2D/out_tp"->"model/leaky_re_lu/LeakyRelu/mul" [label="f32[1,128,128,16]"]
"model/leaky_re_lu/LeakyRelu/mul"->"model/leaky_re_lu/LeakyRelu/max" [label="f32[1,128,128,16]"]
"model/leaky_re_lu/LeakyRelu/max"->"model/conv2d_1/BiasAdd;model/conv2d_19/BiasAdd/ReadVariableOp;model/conv2d_1/Conv2D/in_tp" [label="f32[1,128,128,16]"]
"model/conv2d_1/BiasAdd;model/conv2d_19/BiasAdd/ReadVariableOp;model/conv2d_1/Conv2D/in_tp"->"model/conv2d_1/BiasAdd;model/conv2d_19/BiasAdd/ReadVariableOp;model/conv2d_1/Conv2D/conv" [label="f32[1,16,128,128]"]
"model/conv2d_1/BiasAdd;model/conv2d_19/BiasAdd/ReadVariableOp;model/conv2d_1/Conv2D/weights_tp"->"model/conv2d_1/BiasAdd;model/conv2d_19/BiasAdd/ReadVariableOp;model/conv2d_1/Conv2D/conv" [label="f32[16,16,3,3]"]
"model/conv2d_1/BiasAdd;model/conv2d_19/BiasAdd/ReadVariableOp;model/conv2d_1/Conv2D/conv"->"model/conv2d_1/BiasAdd;model/conv2d_19/BiasAdd/ReadVariableOp;model/conv2d_1/Conv2D/out_tp" [label="f32[1,16,128,128]"]
"model/conv2d_1/BiasAdd;model/conv2d_19/BiasAdd/ReadVariableOp;model/conv2d_1/Conv2D/out_tp"->"model/leaky_re_lu_1/LeakyRelu/mul" [label="f32[1,128,128,16]"]
"model/conv2d_1/BiasAdd;model/conv2d_19/BiasAdd/ReadVariableOp;model/conv2d_1/Conv2D/out_tp"->"model/leaky_re_lu_1/LeakyRelu/max" [label="f32[1,128,128,16]"]
"model/leaky_re_lu_1/LeakyRelu/mul"->"model/leaky_re_lu_1/LeakyRelu/max" [label="f32[1,128,128,16]"]
"model/leaky_re_lu_1/LeakyRelu/max"->"model/max_pooling2d/MaxPool" [label="f32[1,128,128,16]"]
"model/leaky_re_lu_1/LeakyRelu/max"->"model/concatenate_3/concat/concat" [label="f32[1,128,128,16]"]
"model/max_pooling2d/MaxPool"->"model/max_pooling2d/MaxPool" [label="f32[1,16,128,128]"]
"model/max_pooling2d/MaxPool"->"model/max_pooling2d/MaxPool" [label="f32[1,16,64,64]"]
"model/max_pooling2d/MaxPool"->"model/conv2d_2/BiasAdd;model/conv2d_16/BiasAdd/ReadVariableOp;model/conv2d_2/Conv2D/in_tp" [label="f32[1,64,64,16]"]
"model/conv2d_2/BiasAdd;model/conv2d_16/BiasAdd/ReadVariableOp;model/conv2d_2/Conv2D/in_tp"->"model/conv2d_2/BiasAdd;model/conv2d_16/BiasAdd/ReadVariableOp;model/conv2d_2/Conv2D/conv" [label="f32[1,16,64,64]"]
"model/conv2d_2/BiasAdd;model/conv2d_16/BiasAdd/ReadVariableOp;model/conv2d_2/Conv2D/weights_tp"->"model/conv2d_2/BiasAdd;model/conv2d_16/BiasAdd/ReadVariableOp;model/conv2d_2/Conv2D/conv" [label="f32[32,16,3,3]"]
"model/conv2d_2/BiasAdd;model/conv2d_16/BiasAdd/ReadVariableOp;model/conv2d_2/Conv2D/conv"->"model/conv2d_2/BiasAdd;model/conv2d_16/BiasAdd/ReadVariableOp;model/conv2d_2/Conv2D/out_tp" [label="f32[1,32,64,64]"]
"model/conv2d_2/BiasAdd;model/conv2d_16/BiasAdd/ReadVariableOp;model/conv2d_2/Conv2D/out_tp"->"model/leaky_re_lu_2/LeakyRelu/mul" [label="f32[1,64,64,32]"]
"model/conv2d_2/BiasAdd;model/conv2d_16/BiasAdd/ReadVariableOp;model/conv2d_2/Conv2D/out_tp"->"model/leaky_re_lu_2/LeakyRelu/max" [label="f32[1,64,64,32]"]
"model/leaky_re_lu_2/LeakyRelu/mul"->"model/leaky_re_lu_2/LeakyRelu/max" [label="f32[1,64,64,32]"]
"model/leaky_re_lu_2/LeakyRelu/max"->"model/conv2d_3/BiasAdd;model/conv2d_16/BiasAdd/ReadVariableOp;model/conv2d_3/Conv2D/in_tp" [label="f32[1,64,64,32]"]
"model/conv2d_3/BiasAdd;model/conv2d_16/BiasAdd/ReadVariableOp;model/conv2d_3/Conv2D/in_tp"->"model/conv2d_3/BiasAdd;model/conv2d_16/BiasAdd/ReadVariableOp;model/conv2d_3/Conv2D/conv" [label="f32[1,32,64,64]"]
"model/conv2d_3/BiasAdd;model/conv2d_16/BiasAdd/ReadVariableOp;model/conv2d_3/Conv2D/weights_tp"->"model/conv2d_3/BiasAdd;model/conv2d_16/BiasAdd/ReadVariableOp;model/conv2d_3/Conv2D/conv" [label="f32[32,32,3,3]"]
"model/conv2d_3/BiasAdd;model/conv2d_16/BiasAdd/ReadVariableOp;model/conv2d_3/Conv2D/conv"->"model/conv2d_3/BiasAdd;model/conv2d_16/BiasAdd/ReadVariableOp;model/conv2d_3/Conv2D/out_tp" [label="f32[1,32,64,64]"]
"model/conv2d_3/BiasAdd;model/conv2d_16/BiasAdd/ReadVariableOp;model/conv2d_3/Conv2D/out_tp"->"model/leaky_re_lu_3/LeakyRelu/mul" [label="f32[1,64,64,32]"]
"model/conv2d_3/BiasAdd;model/conv2d_16/BiasAdd/ReadVariableOp;model/conv2d_3/Conv2D/out_tp"->"model/leaky_re_lu_3/LeakyRelu/max" [label="f32[1,64,64,32]"]
"model/leaky_re_lu_3/LeakyRelu/mul"->"model/leaky_re_lu_3/LeakyRelu/max" [label="f32[1,64,64,32]"]
"model/leaky_re_lu_3/LeakyRelu/max"->"model/max_pooling2d_1/MaxPool" [label="f32[1,64,64,32]"]
"model/leaky_re_lu_3/LeakyRelu/max"->"model/concatenate_2/concat/concat" [label="f32[1,64,64,32]"]
"model/max_pooling2d_1/MaxPool"->"model/max_pooling2d_1/MaxPool" [label="f32[1,32,64,64]"]
"model/max_pooling2d_1/MaxPool"->"model/max_pooling2d_1/MaxPool" [label="f32[1,32,32,32]"]
"model/max_pooling2d_1/MaxPool"->"model/conv2d_4/BiasAdd;model/conv2d_13/BiasAdd/ReadVariableOp;model/conv2d_4/Conv2D/in_tp" [label="f32[1,32,32,32]"]
"model/conv2d_4/BiasAdd;model/conv2d_13/BiasAdd/ReadVariableOp;model/conv2d_4/Conv2D/in_tp"->"model/conv2d_4/BiasAdd;model/conv2d_13/BiasAdd/ReadVariableOp;model/conv2d_4/Conv2D/conv" [label="f32[1,32,32,32]"]
"model/conv2d_4/BiasAdd;model/conv2d_13/BiasAdd/ReadVariableOp;model/conv2d_4/Conv2D/weights_tp"->"model/conv2d_4/BiasAdd;model/conv2d_13/BiasAdd/ReadVariableOp;model/conv2d_4/Conv2D/conv" [label="f32[64,32,3,3]"]
"model/conv2d_4/BiasAdd;model/conv2d_13/BiasAdd/ReadVariableOp;model/conv2d_4/Conv2D/conv"->"model/conv2d_4/BiasAdd;model/conv2d_13/BiasAdd/ReadVariableOp;model/conv2d_4/Conv2D/out_tp" [label="f32[1,64,32,32]"]
"model/conv2d_4/BiasAdd;model/conv2d_13/BiasAdd/ReadVariableOp;model/conv2d_4/Conv2D/out_tp"->"model/leaky_re_lu_4/LeakyRelu/mul" [label="f32[1,32,32,64]"]
"model/conv2d_4/BiasAdd;model/conv2d_13/BiasAdd/ReadVariableOp;model/conv2d_4/Conv2D/out_tp"->"model/leaky_re_lu_4/LeakyRelu/max" [label="f32[1,32,32,64]"]
"model/leaky_re_lu_4/LeakyRelu/mul"->"model/leaky_re_lu_4/LeakyRelu/max" [label="f32[1,32,32,64]"]
"model/leaky_re_lu_4/LeakyRelu/max"->"model/conv2d_5/BiasAdd;model/conv2d_13/BiasAdd/ReadVariableOp;model/conv2d_5/Conv2D/in_tp" [label="f32[1,32,32,64]"]
"model/conv2d_5/BiasAdd;model/conv2d_13/BiasAdd/ReadVariableOp;model/conv2d_5/Conv2D/in_tp"->"model/conv2d_5/BiasAdd;model/conv2d_13/BiasAdd/ReadVariableOp;model/conv2d_5/Conv2D/conv" [label="f32[1,64,32,32]"]
"model/conv2d_5/BiasAdd;model/conv2d_13/BiasAdd/ReadVariableOp;model/conv2d_5/Conv2D/weights_tp"->"model/conv2d_5/BiasAdd;model/conv2d_13/BiasAdd/ReadVariableOp;model/conv2d_5/Conv2D/conv" [label="f32[64,64,3,3]"]
"model/conv2d_5/BiasAdd;model/conv2d_13/BiasAdd/ReadVariableOp;model/conv2d_5/Conv2D/conv"->"model/conv2d_5/BiasAdd;model/conv2d_13/BiasAdd/ReadVariableOp;model/conv2d_5/Conv2D/out_tp" [label="f32[1,64,32,32]"]
"model/conv2d_5/BiasAdd;model/conv2d_13/BiasAdd/ReadVariableOp;model/conv2d_5/Conv2D/out_tp"->"model/leaky_re_lu_5/LeakyRelu/mul" [label="f32[1,32,32,64]"]
"model/conv2d_5/BiasAdd;model/conv2d_13/BiasAdd/ReadVariableOp;model/conv2d_5/Conv2D/out_tp"->"model/leaky_re_lu_5/LeakyRelu/max" [label="f32[1,32,32,64]"]
"model/leaky_re_lu_5/LeakyRelu/mul"->"model/leaky_re_lu_5/LeakyRelu/max" [label="f32[1,32,32,64]"]
"model/leaky_re_lu_5/LeakyRelu/max"->"model/max_pooling2d_2/MaxPool" [label="f32[1,32,32,64]"]
"model/leaky_re_lu_5/LeakyRelu/max"->"model/concatenate_1/concat/concat" [label="f32[1,32,32,64]"]
"model/max_pooling2d_2/MaxPool"->"model/max_pooling2d_2/MaxPool" [label="f32[1,64,32,32]"]
"model/max_pooling2d_2/MaxPool"->"model/max_pooling2d_2/MaxPool" [label="f32[1,64,16,16]"]
"model/max_pooling2d_2/MaxPool"->"model/conv2d_6/BiasAdd;model/conv2d_10/BiasAdd/ReadVariableOp;model/conv2d_6/Conv2D/in_tp" [label="f32[1,16,16,64]"]
"model/conv2d_6/BiasAdd;model/conv2d_10/BiasAdd/ReadVariableOp;model/conv2d_6/Conv2D/in_tp"->"model/conv2d_6/BiasAdd;model/conv2d_10/BiasAdd/ReadVariableOp;model/conv2d_6/Conv2D/conv" [label="f32[1,64,16,16]"]
"model/conv2d_6/BiasAdd;model/conv2d_10/BiasAdd/ReadVariableOp;model/conv2d_6/Conv2D/weights_tp"->"model/conv2d_6/BiasAdd;model/conv2d_10/BiasAdd/ReadVariableOp;model/conv2d_6/Conv2D/conv" [label="f32[128,64,3,3]"]
"model/conv2d_6/BiasAdd;model/conv2d_10/BiasAdd/ReadVariableOp;model/conv2d_6/Conv2D/conv"->"model/conv2d_6/BiasAdd;model/conv2d_10/BiasAdd/ReadVariableOp;model/conv2d_6/Conv2D/out_tp" [label="f32[1,128,16,16]"]
"model/conv2d_6/BiasAdd;model/conv2d_10/BiasAdd/ReadVariableOp;model/conv2d_6/Conv2D/out_tp"->"model/leaky_re_lu_6/LeakyRelu/mul" [label="f32[1,16,16,128]"]
"model/conv2d_6/BiasAdd;model/conv2d_10/BiasAdd/ReadVariableOp;model/conv2d_6/Conv2D/out_tp"->"model/leaky_re_lu_6/LeakyRelu/max" [label="f32[1,16,16,128]"]
"model/leaky_re_lu_6/LeakyRelu/mul"->"model/leaky_re_lu_6/LeakyRelu/max" [label="f32[1,16,16,128]"]
"model/leaky_re_lu_6/LeakyRelu/max"->"model/conv2d_7/BiasAdd;model/conv2d_10/BiasAdd/ReadVariableOp;model/conv2d_7/Conv2D/in_tp" [label="f32[1,16,16,128]"]
"model/conv2d_7/BiasAdd;model/conv2d_10/BiasAdd/ReadVariableOp;model/conv2d_7/Conv2D/in_tp"->"model/conv2d_7/BiasAdd;model/conv2d_10/BiasAdd/ReadVariableOp;model/conv2d_7/Conv2D/conv" [label="f32[1,128,16,16]"]
"model/conv2d_7/BiasAdd;model/conv2d_10/BiasAdd/ReadVariableOp;model/conv2d_7/Conv2D/weights_tp"->"model/conv2d_7/BiasAdd;model/conv2d_10/BiasAdd/ReadVariableOp;model/conv2d_7/Conv2D/conv" [label="f32[128,128,3,3]"]
"model/conv2d_7/BiasAdd;model/conv2d_10/BiasAdd/ReadVariableOp;model/conv2d_7/Conv2D/conv"->"model/conv2d_7/BiasAdd;model/conv2d_10/BiasAdd/ReadVariableOp;model/conv2d_7/Conv2D/out_tp" [label="f32[1,128,16,16]"]
"model/conv2d_7/BiasAdd;model/conv2d_10/BiasAdd/ReadVariableOp;model/conv2d_7/Conv2D/out_tp"->"model/leaky_re_lu_7/LeakyRelu/mul" [label="f32[1,16,16,128]"]
"model/conv2d_7/BiasAdd;model/conv2d_10/BiasAdd/ReadVariableOp;model/conv2d_7/Conv2D/out_tp"->"model/leaky_re_lu_7/LeakyRelu/max" [label="f32[1,16,16,128]"]
"model/leaky_re_lu_7/LeakyRelu/mul"->"model/leaky_re_lu_7/LeakyRelu/max" [label="f32[1,16,16,128]"]
"model/leaky_re_lu_7/LeakyRelu/max"->"model/max_pooling2d_3/MaxPool" [label="f32[1,16,16,128]"]
"model/leaky_re_lu_7/LeakyRelu/max"->"model/concatenate/concat/concat" [label="f32[1,16,16,128]"]
"model/max_pooling2d_3/MaxPool"->"model/max_pooling2d_3/MaxPool" [label="f32[1,128,16,16]"]
"model/max_pooling2d_3/MaxPool"->"model/max_pooling2d_3/MaxPool" [label="f32[1,128,8,8]"]
"model/max_pooling2d_3/MaxPool"->"model/conv2d_8/BiasAdd;model/conv2d_8/BiasAdd/ReadVariableOp;model/conv2d_8/Conv2D/in_tp" [label="f32[1,8,8,128]"]
"model/conv2d_8/BiasAdd;model/conv2d_8/BiasAdd/ReadVariableOp;model/conv2d_8/Conv2D/in_tp"->"model/conv2d_8/BiasAdd;model/conv2d_8/BiasAdd/ReadVariableOp;model/conv2d_8/Conv2D/conv" [label="f32[1,128,8,8]"]
"model/conv2d_8/BiasAdd;model/conv2d_8/BiasAdd/ReadVariableOp;model/conv2d_8/Conv2D/weights_tp"->"model/conv2d_8/BiasAdd;model/conv2d_8/BiasAdd/ReadVariableOp;model/conv2d_8/Conv2D/conv" [label="f32[256,128,3,3]"]
"model/conv2d_8/BiasAdd;model/conv2d_8/BiasAdd/ReadVariableOp;model/conv2d_8/Conv2D/conv"->"model/conv2d_8/BiasAdd;model/conv2d_8/BiasAdd/ReadVariableOp;model/conv2d_8/Conv2D/out_tp" [label="f32[1,256,8,8]"]
"model/conv2d_8/BiasAdd;model/conv2d_8/BiasAdd/ReadVariableOp;model/conv2d_8/Conv2D/out_tp"->"model/leaky_re_lu_8/LeakyRelu/max" [label="f32[1,8,8,256]"]
"model/conv2d_8/BiasAdd;model/conv2d_8/BiasAdd/ReadVariableOp;model/conv2d_8/Conv2D/out_tp"->"model/leaky_re_lu_8/LeakyRelu/mul" [label="f32[1,8,8,256]"]
"model/leaky_re_lu_8/LeakyRelu/mul"->"model/leaky_re_lu_8/LeakyRelu/max" [label="f32[1,8,8,256]"]
"model/leaky_re_lu_8/LeakyRelu/max"->"model/conv2d_9/BiasAdd;model/conv2d_8/BiasAdd/ReadVariableOp;model/conv2d_9/Conv2D/in_tp" [label="f32[1,8,8,256]"]
"model/conv2d_9/BiasAdd;model/conv2d_8/BiasAdd/ReadVariableOp;model/conv2d_9/Conv2D/in_tp"->"model/conv2d_9/BiasAdd;model/conv2d_8/BiasAdd/ReadVariableOp;model/conv2d_9/Conv2D/conv" [label="f32[1,256,8,8]"]
"model/conv2d_9/BiasAdd;model/conv2d_8/BiasAdd/ReadVariableOp;model/conv2d_9/Conv2D/weights_tp"->"model/conv2d_9/BiasAdd;model/conv2d_8/BiasAdd/ReadVariableOp;model/conv2d_9/Conv2D/conv" [label="f32[256,256,3,3]"]
"model/conv2d_9/BiasAdd;model/conv2d_8/BiasAdd/ReadVariableOp;model/conv2d_9/Conv2D/conv"->"model/conv2d_9/BiasAdd;model/conv2d_8/BiasAdd/ReadVariableOp;model/conv2d_9/Conv2D/out_tp" [label="f32[1,256,8,8]"]
"model/conv2d_9/BiasAdd;model/conv2d_8/BiasAdd/ReadVariableOp;model/conv2d_9/Conv2D/out_tp"->"model/leaky_re_lu_9/LeakyRelu/mul" [label="f32[1,8,8,256]"]
"model/conv2d_9/BiasAdd;model/conv2d_8/BiasAdd/ReadVariableOp;model/conv2d_9/Conv2D/out_tp"->"model/leaky_re_lu_9/LeakyRelu/max" [label="f32[1,8,8,256]"]
"model/leaky_re_lu_9/LeakyRelu/mul"->"model/leaky_re_lu_9/LeakyRelu/max" [label="f32[1,8,8,256]"]
"model/leaky_re_lu_9/LeakyRelu/max"->"model/up_sampling2d/resize/ResizeNearestNeighbor" [label="f32[1,8,8,256]"]
"model/up_sampling2d/resize/ResizeNearestNeighbor"->"model/up_sampling2d/resize/ResizeNearestNeighbor" [label="f32[1,256,8,8]"]
"model/up_sampling2d/resize/ResizeNearestNeighbor"->"model/up_sampling2d/resize/ResizeNearestNeighbor" [label="f32[1,256,16,16]"]
"model/up_sampling2d/resize/ResizeNearestNeighbor"->"model/conv2d_10/BiasAdd;model/conv2d_10/BiasAdd/ReadVariableOp;model/conv2d_10/Conv2D/in_tp" [label="f32[1,16,16,256]"]
"model/conv2d_10/BiasAdd;model/conv2d_10/BiasAdd/ReadVariableOp;model/conv2d_10/Conv2D/in_tp"->"model/conv2d_10/BiasAdd;model/conv2d_10/BiasAdd/ReadVariableOp;model/conv2d_10/Conv2D/conv" [label="f32[1,256,16,16]"]
"model/conv2d_10/BiasAdd;model/conv2d_10/BiasAdd/ReadVariableOp;model/conv2d_10/Conv2D/weights_tp"->"model/conv2d_10/BiasAdd;model/conv2d_10/BiasAdd/ReadVariableOp;model/conv2d_10/Conv2D/conv" [label="f32[128,256,2,2]"]
"model/conv2d_10/BiasAdd;model/conv2d_10/BiasAdd/ReadVariableOp;model/conv2d_10/Conv2D/conv"->"model/conv2d_10/BiasAdd;model/conv2d_10/BiasAdd/ReadVariableOp;model/conv2d_10/Conv2D/out_tp" [label="f32[1,128,16,16]"]
"model/conv2d_10/BiasAdd;model/conv2d_10/BiasAdd/ReadVariableOp;model/conv2d_10/Conv2D/out_tp"->"model/leaky_re_lu_10/LeakyRelu/max" [label="f32[1,16,16,128]"]
"model/conv2d_10/BiasAdd;model/conv2d_10/BiasAdd/ReadVariableOp;model/conv2d_10/Conv2D/out_tp"->"model/leaky_re_lu_10/LeakyRelu/mul" [label="f32[1,16,16,128]"]
"model/leaky_re_lu_10/LeakyRelu/mul"->"model/leaky_re_lu_10/LeakyRelu/max" [label="f32[1,16,16,128]"]
"model/leaky_re_lu_10/LeakyRelu/max"->"model/concatenate/concat/concat" [label="f32[1,16,16,128]"]
"model/concatenate/concat/concat"->"model/conv2d_11/BiasAdd;model/conv2d_10/BiasAdd/ReadVariableOp;model/conv2d_11/Conv2D/in_tp" [label="f32[1,16,16,256]"]
"model/conv2d_11/BiasAdd;model/conv2d_10/BiasAdd/ReadVariableOp;model/conv2d_11/Conv2D/in_tp"->"model/conv2d_11/BiasAdd;model/conv2d_10/BiasAdd/ReadVariableOp;model/conv2d_11/Conv2D/conv" [label="f32[1,256,16,16]"]
"model/conv2d_11/BiasAdd;model/conv2d_10/BiasAdd/ReadVariableOp;model/conv2d_11/Conv2D/weights_tp"->"model/conv2d_11/BiasAdd;model/conv2d_10/BiasAdd/ReadVariableOp;model/conv2d_11/Conv2D/conv" [label="f32[128,256,3,3]"]
"model/conv2d_11/BiasAdd;model/conv2d_10/BiasAdd/ReadVariableOp;model/conv2d_11/Conv2D/conv"->"model/conv2d_11/BiasAdd;model/conv2d_10/BiasAdd/ReadVariableOp;model/conv2d_11/Conv2D/out_tp" [label="f32[1,128,16,16]"]
"model/conv2d_11/BiasAdd;model/conv2d_10/BiasAdd/ReadVariableOp;model/conv2d_11/Conv2D/out_tp"->"model/leaky_re_lu_11/LeakyRelu/mul" [label="f32[1,16,16,128]"]
"model/conv2d_11/BiasAdd;model/conv2d_10/BiasAdd/ReadVariableOp;model/conv2d_11/Conv2D/out_tp"->"model/leaky_re_lu_11/LeakyRelu/max" [label="f32[1,16,16,128]"]
"model/leaky_re_lu_11/LeakyRelu/mul"->"model/leaky_re_lu_11/LeakyRelu/max" [label="f32[1,16,16,128]"]
"model/leaky_re_lu_11/LeakyRelu/max"->"model/conv2d_12/BiasAdd;model/conv2d_10/BiasAdd/ReadVariableOp;model/conv2d_12/Conv2D/in_tp" [label="f32[1,16,16,128]"]
"model/conv2d_12/BiasAdd;model/conv2d_10/BiasAdd/ReadVariableOp;model/conv2d_12/Conv2D/in_tp"->"model/conv2d_12/BiasAdd;model/conv2d_10/BiasAdd/ReadVariableOp;model/conv2d_12/Conv2D/conv" [label="f32[1,128,16,16]"]
"model/conv2d_12/BiasAdd;model/conv2d_10/BiasAdd/ReadVariableOp;model/conv2d_12/Conv2D/weights_tp"->"model/conv2d_12/BiasAdd;model/conv2d_10/BiasAdd/ReadVariableOp;model/conv2d_12/Conv2D/conv" [label="f32[128,128,3,3]"]
"model/conv2d_12/BiasAdd;model/conv2d_10/BiasAdd/ReadVariableOp;model/conv2d_12/Conv2D/conv"->"model/conv2d_12/BiasAdd;model/conv2d_10/BiasAdd/ReadVariableOp;model/conv2d_12/Conv2D/out_tp" [label="f32[1,128,16,16]"]
"model/conv2d_12/BiasAdd;model/conv2d_10/BiasAdd/ReadVariableOp;model/conv2d_12/Conv2D/out_tp"->"model/leaky_re_lu_12/LeakyRelu/mul" [label="f32[1,16,16,128]"]
"model/conv2d_12/BiasAdd;model/conv2d_10/BiasAdd/ReadVariableOp;model/conv2d_12/Conv2D/out_tp"->"model/leaky_re_lu_12/LeakyRelu/max" [label="f32[1,16,16,128]"]
"model/leaky_re_lu_12/LeakyRelu/mul"->"model/leaky_re_lu_12/LeakyRelu/max" [label="f32[1,16,16,128]"]
"model/leaky_re_lu_12/LeakyRelu/max"->"model/up_sampling2d_1/resize/ResizeNearestNeighbor" [label="f32[1,16,16,128]"]
"model/up_sampling2d_1/resize/ResizeNearestNeighbor"->"model/up_sampling2d_1/resize/ResizeNearestNeighbor" [label="f32[1,128,16,16]"]
"model/up_sampling2d_1/resize/ResizeNearestNeighbor"->"model/up_sampling2d_1/resize/ResizeNearestNeighbor" [label="f32[1,128,32,32]"]
"model/up_sampling2d_1/resize/ResizeNearestNeighbor"->"model/conv2d_13/BiasAdd;model/conv2d_13/BiasAdd/ReadVariableOp;model/conv2d_13/Conv2D/in_tp" [label="f32[1,32,32,128]"]
"model/conv2d_13/BiasAdd;model/conv2d_13/BiasAdd/ReadVariableOp;model/conv2d_13/Conv2D/in_tp"->"model/conv2d_13/BiasAdd;model/conv2d_13/BiasAdd/ReadVariableOp;model/conv2d_13/Conv2D/conv" [label="f32[1,128,32,32]"]
"model/conv2d_13/BiasAdd;model/conv2d_13/BiasAdd/ReadVariableOp;model/conv2d_13/Conv2D/weights_tp"->"model/conv2d_13/BiasAdd;model/conv2d_13/BiasAdd/ReadVariableOp;model/conv2d_13/Conv2D/conv" [label="f32[64,128,2,2]"]
"model/conv2d_13/BiasAdd;model/conv2d_13/BiasAdd/ReadVariableOp;model/conv2d_13/Conv2D/conv"->"model/conv2d_13/BiasAdd;model/conv2d_13/BiasAdd/ReadVariableOp;model/conv2d_13/Conv2D/out_tp" [label="f32[1,64,32,32]"]
"model/conv2d_13/BiasAdd;model/conv2d_13/BiasAdd/ReadVariableOp;model/conv2d_13/Conv2D/out_tp"->"model/leaky_re_lu_13/LeakyRelu/mul" [label="f32[1,32,32,64]"]
"model/conv2d_13/BiasAdd;model/conv2d_13/BiasAdd/ReadVariableOp;model/conv2d_13/Conv2D/out_tp"->"model/leaky_re_lu_13/LeakyRelu/max" [label="f32[1,32,32,64]"]
"model/leaky_re_lu_13/LeakyRelu/mul"->"model/leaky_re_lu_13/LeakyRelu/max" [label="f32[1,32,32,64]"]
"model/leaky_re_lu_13/LeakyRelu/max"->"model/concatenate_1/concat/concat" [label="f32[1,32,32,64]"]
"model/concatenate_1/concat/concat"->"model/conv2d_14/BiasAdd;model/conv2d_13/BiasAdd/ReadVariableOp;model/conv2d_14/Conv2D/in_tp" [label="f32[1,32,32,128]"]
"model/conv2d_14/BiasAdd;model/conv2d_13/BiasAdd/ReadVariableOp;model/conv2d_14/Conv2D/in_tp"->"model/conv2d_14/BiasAdd;model/conv2d_13/BiasAdd/ReadVariableOp;model/conv2d_14/Conv2D/conv" [label="f32[1,128,32,32]"]
"model/conv2d_14/BiasAdd;model/conv2d_13/BiasAdd/ReadVariableOp;model/conv2d_14/Conv2D/weights_tp"->"model/conv2d_14/BiasAdd;model/conv2d_13/BiasAdd/ReadVariableOp;model/conv2d_14/Conv2D/conv" [label="f32[64,128,3,3]"]
"model/conv2d_14/BiasAdd;model/conv2d_13/BiasAdd/ReadVariableOp;model/conv2d_14/Conv2D/conv"->"model/conv2d_14/BiasAdd;model/conv2d_13/BiasAdd/ReadVariableOp;model/conv2d_14/Conv2D/out_tp" [label="f32[1,64,32,32]"]
"model/conv2d_14/BiasAdd;model/conv2d_13/BiasAdd/ReadVariableOp;model/conv2d_14/Conv2D/out_tp"->"model/leaky_re_lu_14/LeakyRelu/mul" [label="f32[1,32,32,64]"]
"model/conv2d_14/BiasAdd;model/conv2d_13/BiasAdd/ReadVariableOp;model/conv2d_14/Conv2D/out_tp"->"model/leaky_re_lu_14/LeakyRelu/max" [label="f32[1,32,32,64]"]
"model/leaky_re_lu_14/LeakyRelu/mul"->"model/leaky_re_lu_14/LeakyRelu/max" [label="f32[1,32,32,64]"]
"model/leaky_re_lu_14/LeakyRelu/max"->"model/conv2d_15/BiasAdd;model/conv2d_13/BiasAdd/ReadVariableOp;model/conv2d_15/Conv2D/in_tp" [label="f32[1,32,32,64]"]
"model/conv2d_15/BiasAdd;model/conv2d_13/BiasAdd/ReadVariableOp;model/conv2d_15/Conv2D/in_tp"->"model/conv2d_15/BiasAdd;model/conv2d_13/BiasAdd/ReadVariableOp;model/conv2d_15/Conv2D/conv" [label="f32[1,64,32,32]"]
"model/conv2d_15/BiasAdd;model/conv2d_13/BiasAdd/ReadVariableOp;model/conv2d_15/Conv2D/weights_tp"->"model/conv2d_15/BiasAdd;model/conv2d_13/BiasAdd/ReadVariableOp;model/conv2d_15/Conv2D/conv" [label="f32[64,64,3,3]"]
"model/conv2d_15/BiasAdd;model/conv2d_13/BiasAdd/ReadVariableOp;model/conv2d_15/Conv2D/conv"->"model/conv2d_15/BiasAdd;model/conv2d_13/BiasAdd/ReadVariableOp;model/conv2d_15/Conv2D/out_tp" [label="f32[1,64,32,32]"]
"model/conv2d_15/BiasAdd;model/conv2d_13/BiasAdd/ReadVariableOp;model/conv2d_15/Conv2D/out_tp"->"model/leaky_re_lu_15/LeakyRelu/mul" [label="f32[1,32,32,64]"]
"model/conv2d_15/BiasAdd;model/conv2d_13/BiasAdd/ReadVariableOp;model/conv2d_15/Conv2D/out_tp"->"model/leaky_re_lu_15/LeakyRelu/max" [label="f32[1,32,32,64]"]
"model/leaky_re_lu_15/LeakyRelu/mul"->"model/leaky_re_lu_15/LeakyRelu/max" [label="f32[1,32,32,64]"]
"model/leaky_re_lu_15/LeakyRelu/max"->"model/up_sampling2d_2/resize/ResizeNearestNeighbor" [label="f32[1,32,32,64]"]
"model/up_sampling2d_2/resize/ResizeNearestNeighbor"->"model/up_sampling2d_2/resize/ResizeNearestNeighbor" [label="f32[1,64,32,32]"]
"model/up_sampling2d_2/resize/ResizeNearestNeighbor"->"model/up_sampling2d_2/resize/ResizeNearestNeighbor" [label="f32[1,64,64,64]"]
"model/up_sampling2d_2/resize/ResizeNearestNeighbor"->"model/conv2d_16/BiasAdd;model/conv2d_16/BiasAdd/ReadVariableOp;model/conv2d_16/Conv2D/in_tp" [label="f32[1,64,64,64]"]
"model/conv2d_16/BiasAdd;model/conv2d_16/BiasAdd/ReadVariableOp;model/conv2d_16/Conv2D/in_tp"->"model/conv2d_16/BiasAdd;model/conv2d_16/BiasAdd/ReadVariableOp;model/conv2d_16/Conv2D/conv" [label="f32[1,64,64,64]"]
"model/conv2d_16/BiasAdd;model/conv2d_16/BiasAdd/ReadVariableOp;model/conv2d_16/Conv2D/weights_tp"->"model/conv2d_16/BiasAdd;model/conv2d_16/BiasAdd/ReadVariableOp;model/conv2d_16/Conv2D/conv" [label="f32[32,64,2,2]"]
"model/conv2d_16/BiasAdd;model/conv2d_16/BiasAdd/ReadVariableOp;model/conv2d_16/Conv2D/conv"->"model/conv2d_16/BiasAdd;model/conv2d_16/BiasAdd/ReadVariableOp;model/conv2d_16/Conv2D/out_tp" [label="f32[1,32,64,64]"]
"model/conv2d_16/BiasAdd;model/conv2d_16/BiasAdd/ReadVariableOp;model/conv2d_16/Conv2D/out_tp"->"model/leaky_re_lu_16/LeakyRelu/mul" [label="f32[1,64,64,32]"]
"model/conv2d_16/BiasAdd;model/conv2d_16/BiasAdd/ReadVariableOp;model/conv2d_16/Conv2D/out_tp"->"model/leaky_re_lu_16/LeakyRelu/max" [label="f32[1,64,64,32]"]
"model/leaky_re_lu_16/LeakyRelu/mul"->"model/leaky_re_lu_16/LeakyRelu/max" [label="f32[1,64,64,32]"]
"model/leaky_re_lu_16/LeakyRelu/max"->"model/concatenate_2/concat/concat" [label="f32[1,64,64,32]"]
"model/concatenate_2/concat/concat"->"model/conv2d_17/BiasAdd;model/conv2d_16/BiasAdd/ReadVariableOp;model/conv2d_17/Conv2D/in_tp" [label="f32[1,64,64,64]"]
"model/conv2d_17/BiasAdd;model/conv2d_16/BiasAdd/ReadVariableOp;model/conv2d_17/Conv2D/in_tp"->"model/conv2d_17/BiasAdd;model/conv2d_16/BiasAdd/ReadVariableOp;model/conv2d_17/Conv2D/conv" [label="f32[1,64,64,64]"]
"model/conv2d_17/BiasAdd;model/conv2d_16/BiasAdd/ReadVariableOp;model/conv2d_17/Conv2D/weights_tp"->"model/conv2d_17/BiasAdd;model/conv2d_16/BiasAdd/ReadVariableOp;model/conv2d_17/Conv2D/conv" [label="f32[32,64,3,3]"]
"model/conv2d_17/BiasAdd;model/conv2d_16/BiasAdd/ReadVariableOp;model/conv2d_17/Conv2D/conv"->"model/conv2d_17/BiasAdd;model/conv2d_16/BiasAdd/ReadVariableOp;model/conv2d_17/Conv2D/out_tp" [label="f32[1,32,64,64]"]
"model/conv2d_17/BiasAdd;model/conv2d_16/BiasAdd/ReadVariableOp;model/conv2d_17/Conv2D/out_tp"->"model/leaky_re_lu_17/LeakyRelu/mul" [label="f32[1,64,64,32]"]
"model/conv2d_17/BiasAdd;model/conv2d_16/BiasAdd/ReadVariableOp;model/conv2d_17/Conv2D/out_tp"->"model/leaky_re_lu_17/LeakyRelu/max" [label="f32[1,64,64,32]"]
"model/leaky_re_lu_17/LeakyRelu/mul"->"model/leaky_re_lu_17/LeakyRelu/max" [label="f32[1,64,64,32]"]
"model/leaky_re_lu_17/LeakyRelu/max"->"model/conv2d_18/BiasAdd;model/conv2d_16/BiasAdd/ReadVariableOp;model/conv2d_18/Conv2D/in_tp" [label="f32[1,64,64,32]"]
"model/conv2d_18/BiasAdd;model/conv2d_16/BiasAdd/ReadVariableOp;model/conv2d_18/Conv2D/in_tp"->"model/conv2d_18/BiasAdd;model/conv2d_16/BiasAdd/ReadVariableOp;model/conv2d_18/Conv2D/conv" [label="f32[1,32,64,64]"]
"model/conv2d_18/BiasAdd;model/conv2d_16/BiasAdd/ReadVariableOp;model/conv2d_18/Conv2D/weights_tp"->"model/conv2d_18/BiasAdd;model/conv2d_16/BiasAdd/ReadVariableOp;model/conv2d_18/Conv2D/conv" [label="f32[32,32,3,3]"]
"model/conv2d_18/BiasAdd;model/conv2d_16/BiasAdd/ReadVariableOp;model/conv2d_18/Conv2D/conv"->"model/conv2d_18/BiasAdd;model/conv2d_16/BiasAdd/ReadVariableOp;model/conv2d_18/Conv2D/out_tp" [label="f32[1,32,64,64]"]
"model/conv2d_18/BiasAdd;model/conv2d_16/BiasAdd/ReadVariableOp;model/conv2d_18/Conv2D/out_tp"->"model/leaky_re_lu_18/LeakyRelu/mul" [label="f32[1,64,64,32]"]
"model/conv2d_18/BiasAdd;model/conv2d_16/BiasAdd/ReadVariableOp;model/conv2d_18/Conv2D/out_tp"->"model/leaky_re_lu_18/LeakyRelu/max" [label="f32[1,64,64,32]"]
"model/leaky_re_lu_18/LeakyRelu/mul"->"model/leaky_re_lu_18/LeakyRelu/max" [label="f32[1,64,64,32]"]
"model/leaky_re_lu_18/LeakyRelu/max"->"model/up_sampling2d_3/resize/ResizeNearestNeighbor" [label="f32[1,64,64,32]"]
"model/up_sampling2d_3/resize/ResizeNearestNeighbor"->"model/up_sampling2d_3/resize/ResizeNearestNeighbor" [label="f32[1,32,64,64]"]
"model/up_sampling2d_3/resize/ResizeNearestNeighbor"->"model/up_sampling2d_3/resize/ResizeNearestNeighbor" [label="f32[1,32,128,128]"]
"model/up_sampling2d_3/resize/ResizeNearestNeighbor"->"model/conv2d_19/BiasAdd;model/conv2d_19/BiasAdd/ReadVariableOp;model/conv2d_19/Conv2D/in_tp" [label="f32[1,128,128,32]"]
"model/conv2d_19/BiasAdd;model/conv2d_19/BiasAdd/ReadVariableOp;model/conv2d_19/Conv2D/in_tp"->"model/conv2d_19/BiasAdd;model/conv2d_19/BiasAdd/ReadVariableOp;model/conv2d_19/Conv2D/conv" [label="f32[1,32,128,128]"]
"model/conv2d_19/BiasAdd;model/conv2d_19/BiasAdd/ReadVariableOp;model/conv2d_19/Conv2D/weights_tp"->"model/conv2d_19/BiasAdd;model/conv2d_19/BiasAdd/ReadVariableOp;model/conv2d_19/Conv2D/conv" [label="f32[16,32,2,2]"]
"model/conv2d_19/BiasAdd;model/conv2d_19/BiasAdd/ReadVariableOp;model/conv2d_19/Conv2D/conv"->"model/conv2d_19/BiasAdd;model/conv2d_19/BiasAdd/ReadVariableOp;model/conv2d_19/Conv2D/out_tp" [label="f32[1,16,128,128]"]
"model/conv2d_19/BiasAdd;model/conv2d_19/BiasAdd/ReadVariableOp;model/conv2d_19/Conv2D/out_tp"->"model/leaky_re_lu_19/LeakyRelu/mul" [label="f32[1,128,128,16]"]
"model/conv2d_19/BiasAdd;model/conv2d_19/BiasAdd/ReadVariableOp;model/conv2d_19/Conv2D/out_tp"->"model/leaky_re_lu_19/LeakyRelu/max" [label="f32[1,128,128,16]"]
"model/leaky_re_lu_19/LeakyRelu/mul"->"model/leaky_re_lu_19/LeakyRelu/max" [label="f32[1,128,128,16]"]
"model/leaky_re_lu_19/LeakyRelu/max"->"model/concatenate_3/concat/concat" [label="f32[1,128,128,16]"]
"model/concatenate_3/concat/concat"->"model/conv2d_20/BiasAdd;model/conv2d_19/BiasAdd/ReadVariableOp;model/conv2d_20/Conv2D/in_tp" [label="f32[1,128,128,32]"]
"model/conv2d_20/BiasAdd;model/conv2d_19/BiasAdd/ReadVariableOp;model/conv2d_20/Conv2D/in_tp"->"model/conv2d_20/BiasAdd;model/conv2d_19/BiasAdd/ReadVariableOp;model/conv2d_20/Conv2D/conv" [label="f32[1,32,128,128]"]
"model/conv2d_20/BiasAdd;model/conv2d_19/BiasAdd/ReadVariableOp;model/conv2d_20/Conv2D/weights_tp"->"model/conv2d_20/BiasAdd;model/conv2d_19/BiasAdd/ReadVariableOp;model/conv2d_20/Conv2D/conv" [label="f32[16,32,3,3]"]
"model/conv2d_20/BiasAdd;model/conv2d_19/BiasAdd/ReadVariableOp;model/conv2d_20/Conv2D/conv"->"model/conv2d_20/BiasAdd;model/conv2d_19/BiasAdd/ReadVariableOp;model/conv2d_20/Conv2D/out_tp" [label="f32[1,16,128,128]"]
"model/conv2d_20/BiasAdd;model/conv2d_19/BiasAdd/ReadVariableOp;model/conv2d_20/Conv2D/out_tp"->"model/leaky_re_lu_20/LeakyRelu/max" [label="f32[1,128,128,16]"]
"model/conv2d_20/BiasAdd;model/conv2d_19/BiasAdd/ReadVariableOp;model/conv2d_20/Conv2D/out_tp"->"model/leaky_re_lu_20/LeakyRelu/mul" [label="f32[1,128,128,16]"]
"model/leaky_re_lu_20/LeakyRelu/mul"->"model/leaky_re_lu_20/LeakyRelu/max" [label="f32[1,128,128,16]"]
"model/leaky_re_lu_20/LeakyRelu/max"->"model/conv2d_21/BiasAdd;model/conv2d_19/BiasAdd/ReadVariableOp;model/conv2d_21/Conv2D/in_tp" [label="f32[1,128,128,16]"]
"model/conv2d_21/BiasAdd;model/conv2d_19/BiasAdd/ReadVariableOp;model/conv2d_21/Conv2D/in_tp"->"model/conv2d_21/BiasAdd;model/conv2d_19/BiasAdd/ReadVariableOp;model/conv2d_21/Conv2D/conv" [label="f32[1,16,128,128]"]
"model/conv2d_21/BiasAdd;model/conv2d_19/BiasAdd/ReadVariableOp;model/conv2d_21/Conv2D/weights_tp"->"model/conv2d_21/BiasAdd;model/conv2d_19/BiasAdd/ReadVariableOp;model/conv2d_21/Conv2D/conv" [label="f32[16,16,3,3]"]
"model/conv2d_21/BiasAdd;model/conv2d_19/BiasAdd/ReadVariableOp;model/conv2d_21/Conv2D/conv"->"model/conv2d_21/BiasAdd;model/conv2d_19/BiasAdd/ReadVariableOp;model/conv2d_21/Conv2D/out_tp" [label="f32[1,16,128,128]"]
"model/conv2d_21/BiasAdd;model/conv2d_19/BiasAdd/ReadVariableOp;model/conv2d_21/Conv2D/out_tp"->"model/leaky_re_lu_21/LeakyRelu/mul" [label="f32[1,128,128,16]"]
"model/conv2d_21/BiasAdd;model/conv2d_19/BiasAdd/ReadVariableOp;model/conv2d_21/Conv2D/out_tp"->"model/leaky_re_lu_21/LeakyRelu/max" [label="f32[1,128,128,16]"]
"model/leaky_re_lu_21/LeakyRelu/mul"->"model/leaky_re_lu_21/LeakyRelu/max" [label="f32[1,128,128,16]"]
"model/leaky_re_lu_21/LeakyRelu/max"->"model/conv2d_22/BiasAdd;model/conv2d_22/BiasAdd/ReadVariableOp;model/conv2d_22/Conv2D/in_tp" [label="f32[1,128,128,16]"]
"model/conv2d_22/BiasAdd;model/conv2d_22/BiasAdd/ReadVariableOp;model/conv2d_22/Conv2D/in_tp"->"model/conv2d_22/BiasAdd;model/conv2d_22/BiasAdd/ReadVariableOp;model/conv2d_22/Conv2D/conv" [label="f32[1,16,128,128]"]
"model/conv2d_22/BiasAdd;model/conv2d_22/BiasAdd/ReadVariableOp;model/conv2d_22/Conv2D/weights_tp"->"model/conv2d_22/BiasAdd;model/conv2d_22/BiasAdd/ReadVariableOp;model/conv2d_22/Conv2D/conv" [label="f32[2,16,3,3]"]
"model/conv2d_22/BiasAdd;model/conv2d_22/BiasAdd/ReadVariableOp;model/conv2d_22/Conv2D/conv"->"model/conv2d_22/BiasAdd;model/conv2d_22/BiasAdd/ReadVariableOp;model/conv2d_22/Conv2D/out_tp" [label="f32[1,2,128,128]"]
"model/conv2d_22/BiasAdd;model/conv2d_22/BiasAdd/ReadVariableOp;model/conv2d_22/Conv2D/out_tp"->"model/leaky_re_lu_22/LeakyRelu/mul" [label="f32[1,128,128,2]"]
"model/conv2d_22/BiasAdd;model/conv2d_22/BiasAdd/ReadVariableOp;model/conv2d_22/Conv2D/out_tp"->"model/leaky_re_lu_22/LeakyRelu/max" [label="f32[1,128,128,2]"]
"model/leaky_re_lu_22/LeakyRelu/mul"->"model/leaky_re_lu_22/LeakyRelu/max" [label="f32[1,128,128,2]"]
"model/leaky_re_lu_22/LeakyRelu/max"->"model/conv2d_23/BiasAdd;model/conv2d_23/BiasAdd/ReadVariableOp;model/conv2d_23/Conv2D/in_tp" [label="f32[1,128,128,2]"]
"model/conv2d_23/BiasAdd;model/conv2d_23/BiasAdd/ReadVariableOp;model/conv2d_23/Conv2D/in_tp"->"model/conv2d_23/BiasAdd;model/conv2d_23/BiasAdd/ReadVariableOp;model/conv2d_23/Conv2D/conv" [label="f32[1,2,128,128]"]
"model/conv2d_23/BiasAdd;model/conv2d_23/BiasAdd/ReadVariableOp;model/conv2d_23/Conv2D/weights_tp"->"model/conv2d_23/BiasAdd;model/conv2d_23/BiasAdd/ReadVariableOp;model/conv2d_23/Conv2D/conv" [label="f32[1,2,1,1]"]
"model/conv2d_23/BiasAdd;model/conv2d_23/BiasAdd/ReadVariableOp;model/conv2d_23/Conv2D/conv"->"model/conv2d_23/BiasAdd;model/conv2d_23/BiasAdd/ReadVariableOp;model/conv2d_23/Conv2D/out_tp" [label="f32[1,1,128,128]"]
"model/conv2d_23/BiasAdd;model/conv2d_23/BiasAdd/ReadVariableOp;model/conv2d_23/Conv2D/out_tp"->"StatefulPartitionedCall:0" [label="f32[1,128,128,1]"]
"StatefulPartitionedCall:0"->"StatefulPartitionedCall:0" [label="f32[1,128,128,1]"]
"StatefulPartitionedCall:0"->"StatefulPartitionedCall:0" [label="f32[1,128,128,1]"]
"StatefulPartitionedCall:0"->"StatefulPartitionedCall:0" [label="f32[1,128,128,1]"]
"StatefulPartitionedCall:0"->"StatefulPartitionedCall:0" [label="f32[1,128,128,1]"]
"StatefulPartitionedCall:0"->"StatefulPartitionedCall:0" [label="f32[1,128,128,1]"]
"StatefulPartitionedCall:0"->"StatefulPartitionedCall:0" [label="f32[1,128,128,1]"]
"serving_default_input_1:0"->"model/conv2d/BiasAdd;model/conv2d_19/BiasAdd/ReadVariableOp;model/conv2d/Conv2D/in_tp" [label="f32[1,128,128,1]"]
}
